…
data.show_batch(rows=5, figsize=(15,15))

Training: resnet34

If you do not know what to use, it is a good choice to start with a Residual Network with 34 layers. Not too small and not too big… In the tutorials listed above the authors used:

a custom, but small, ResNet (PyImagesearch)

a VGG19 (TowardsDataScience)

We will employ off-the-shelf fast.ai residual networks (ResNets). Let’s create our first network:

learn = cnn_learner(data, models.resnet34, metrics=error_rate)

learn.model

The last line will output the architecture of the network as a text stream. It will look like this:

Sequential(

(0): Sequential(

(0): Conv2d(3, 64, kernel_size=(7, 7), stride=(2, 2), padding=(3, 3), bias=False)

(1): BatchNorm2d(64, eps=1e-05, momentum=0.1, affine=True, track_running_stats=True)

(2): ReLU(inplace)

(3): MaxPool2d(kernel_size=3, stride=2, padding=1, dilation=1, ceil_mode=False)

(4): Sequential(

(0): BasicBlock(

(conv1): Conv2d(64, 64, kernel_size=(3, 3), stride=(1, 1), padding=(1, 1), bias=False)

(bn1): BatchNorm2d(64, eps=1e-05, momentum=0.1, affine=True, track_running_stats=True)

(relu): ReLU(inplace)

(conv2): Conv2d(64, 64, kernel_size=(3, 3), stride=(1, 1), padding=(1, 1), bias=False)

(bn2): BatchNorm2d(64, eps=1e-05, momentum=0.1, affine=True, track_running_stats=True)

)

(1): BasicBlock(

(conv1): Conv2d(64, 64, kernel_size=(3, 3), stride=(1, 1), padding=(1, 1), bias=False)

(bn1): BatchNorm2d(64, eps=1e-05, momentum=0.1, affine=True, track_running_stats=True)

(relu): ReLU(inplace)

(conv2): Conv2d(64, 64, kernel_size=(3, 3), stride=(1, 1), padding=(1, 1), bias=False)

(bn2): BatchNorm2d(64, eps=1e-05, momentum=0.1, affine=True, track_running_stats=True)

)

(2): BasicBlock(

(conv1): Conv2d(64, 64, kernel_size=(3, 3), stride=(1, 1), padding=(1, 1), bias=False)

(bn1): BatchNorm2d(64, eps=1e-05, momentum=0.1, affine=True, track_running_stats=True)

(relu): ReLU(inplace)

(conv2): Conv2d(64, 64, kernel_size=(3, 3), stride=(1, 1), padding=(1, 1), bias=False)

(bn2): BatchNorm2d(64, eps=1e-05, momentum=0.1, affine=True, track_running_stats=True)

)

)

....and so on....

Even a “small” network such as a ResNet34 is still very large. Do not bother trying to understand the output. You can read more about residual networks later. There are lots of introductory postings about ResNets.

Training strategy

Here comes one of the great differentials of fast.ai: Easy-to-use HYPOs 
…
Path: data; Test: None

Now, create the learner:

learn18 = cnn_learner(data, models.resnet18, metrics=error_rate)

If you Colab environment doesn’t have the pretrained data for the ResNet18, fast.ai will automatically download it:

Downloading: "https://download.pytorch.org/models/resnet18-5c106cde.pth" to /root/.torch/models/resnet18-5c106cde.pth

46827520it [00:01, 28999302.58it/s]

Look at the model:

learn18.model

This will list the structure of your net. It is much smaller than the ResNet34, but still has a lot of layers. The output will look like this:

Sequential(

(0): Sequential(

(0): Conv2d(3, 64, kernel_size=(7, 7), stride=(2, 2), padding=(3, 3), bias=False)

(1): BatchNorm2d(64, eps=1e-05, momentum=0.1, affine=True, track_running_stats=True)

(2): ReLU(inplace)

(3): MaxPool2d(kernel_size=3, stride=2, padding=1, dilation=1, ceil_mode=False)

(4): Sequential(

(0): BasicBlock(

(conv1): Conv2d(64, 64, kernel_size=(3, 3), stride=(1, 1), padding=(1, 1), bias=False)

(bn1): BatchNorm2d(64, eps=1e-05, momentum=0.1, affine=True, track_running_stats=True)

(relu): ReLU(inplace)

(conv2): Conv2d(64, 64, kernel_size=(3, 3), stride=(1, 1), padding=(1, 1), bias=False)

(bn2): BatchNorm2d(64, eps=1e-05, momentum=0.1, affine=True, track_running_stats=True)

)

(1): BasicBlock(

(conv1): Conv2d(64, 64, kernel_size=(3, 3), stride=(1, 1), padding=(1, 1), bias=False)

(bn1): BatchNorm2d(64, eps=1e-05, momentum=0.1, affine=True, track_running_stats=True)

(relu): ReLU(inplace)

(conv2): Conv2d(64, 64, kernel_size=(3, 3), stride=(1, 1), padding=(1, 1), bias=False)

(bn2): BatchNorm2d(64, eps=1e-05, momentum=0.1, affine=True, track_running_stats=True)

)

)

(5): Sequential(

(0): BasicBlock(

(conv1): Conv2d(64, 128, kernel_size=(3, 3), stride=(2, 2), padding=(1, 1), bias=False)

(bn1): BatchNorm2d(128, eps=1e-05, momentum=0.1, affine=True, track_running_stats=True)

(relu): ReLU(inplace)

(conv2): Conv2d(128, 128, kernel_size=(3, 3), stride=(1, 1), padding=(1, 1), bias=False)

(bn2): BatchNorm2d(128, eps=1e-05, momentum=0.1, affine=True, track_running_stats=True)

(downsample): Sequential(

(0): Conv2d(64, 128, kernel_size=(1, 1), stride=(2, 2), bias=False)

(1): BatchNorm2d(128, eps=1e-05, momentum=0.1, affine=True, track_running_stats=True)

)

)

...and so on...

Let’s train it

We will again use the fit_one_cycle HYPO training strategy. Limit the training to 10 epochs to see how this smaller network behaves:

learn18.fit_one_cycle(10, callbacks=[SaveModelCallback(learn, every='epoch', monitor='accuracy', name='malaria18-1')])

# Save the network

learn18.save('malaria18-stage-1')
…
