…
Next, the data was sequenced. The past 60 days of data is used in sequence for the next day prediction for all training, validation, and test data sets.

Once sequencing is complete, the data was balanced. This was to make sure the LSTM model is not biased towards the downward trends, as observed earlier during data analysis.

Building and training the LSTM model: A LSTM model using batch size of 64 and 40 epochs were compiled (using Keras in Tensorflow). The summary of the model is as follows:

Layer (type) Output Shape Param #

=================================================================

lstm_3 (LSTM) (None, 60, 128) 72192

_________________________________________________________________

dropout_4 (Dropout) (None, 60, 128) 0

_________________________________________________________________

batch_normalization_3 (Batch (None, 60, 128) 512

_________________________________________________________________

lstm_4 (LSTM) (None, 60, 128) 131584

_________________________________________________________________

dropout_5 (Dropout) (None, 60, 128) 0

_________________________________________________________________

batch_normalization_4 (Batch (None, 60, 128) 512

_________________________________________________________________

lstm_5 (LSTM) (None, 128) 131584

_________________________________________________________________

dropout_6 (Dropout) (None, 128) 0

_________________________________________________________________

batch_normalization_5 (Batch (None, 128) 512

_________________________________________________________________

dense_2 (Dense) (None, 32) 4128

_________________________________________________________________

dropout_7 (Dropout) (None, 32) 0

_________________________________________________________________

dense_3 (Dense) (None, 2) 66

=================================================================

Total params: 341,090

Trainable params: 340,322

Non-trainable params: 768

_________________________________________________________________

Essentially, the LSTM models will have 3 LSTM layers and dense layer with activation and then finally a dense output layer with softmax activation function as this is a classification problem. The softmax activation function will output the probability of the classification.
…
