…
 path towards convergence.

Callbacks will help us retain the best weights and biases we trained so far, since we will be training with multiple epochs and each epoch will go through entire training set. There is always a possibility that the model is over-fitting after certain number of epoch or accuracy may stop improving, the already saved weights will be helpful.

The model we defined looks like below

_________________________________________________________________

Layer (type) Output Shape Param #

=================================================================

input_3 (InputLayer) (None, 256, 256, 3) 0

_________________________________________________________________

conv2d_33 (Conv2D) (None, 254, 254, 16) 448

_________________________________________________________________

conv2d_34 (Conv2D) (None, 252, 252, 16) 2320

_________________________________________________________________

batch_normalization_17 (Batc (None, 252, 252, 16) 64

_________________________________________________________________

zero_padding2d_5 (ZeroPaddin (None, 254, 254, 16) 0

_________________________________________________________________

conv2d_35 (Conv2D) (None, 252, 252, 32) 4640

_________________________________________________________________

conv2d_36 (Conv2D) (None, 250, 250, 32) 9248

_________________________________________________________________

batch_normalization_18 (Batc (None, 250, 250, 32) 128

_________________________________________________________________

conv2d_37 (Conv2D) (None, 248, 248, 64) 18496

_________________________________________________________________

conv2d_38 (Conv2D) (None, 246, 246, 64) 36928

_________________________________________________________________

batch_normalization_19 (Batc (None, 246, 246, 64) 256

_________________________________________________________________

max_pooling2d_5 (MaxPooling2 (None, 123, 123, 64) 0

_________________________________________________________________

zero_padding2d_6 (ZeroPaddin (None, 125, 125, 64) 0

_________________________________________________________________

conv2d_39 (Conv2D) (None, 123, 123, 128) 73856

_________________________________________________________________

conv2d_40 (Conv2D) (None, 122, 122, 128) 65664

_________________________________________________________________

batch_normalization_20 (Batc (None, 122, 122, 128) 512

_________________________________________________________________

conv2d_41 (Conv2D) (None, 120, 120, 64) 73792

_________________________________________________________________

conv2d_42 (Conv2D) (None, 118, 118, 64) 36928

_________________________________________________________________

batch_normalization_21 (Batc (None, 118, 118, 64) 256

_________________________________________________________________

conv2d_43 (Conv2D) (None, 116, 116, 64) 36928

_________________________________________________________________

conv2d_44 (Conv2D) (None, 114, 114, 64) 36928

_________________________________________________________________

batch_normalization_22 (Batc (None, 114, 114, 64) 256

_________________________________________________________________

max_pooling2d_6 (MaxPooling2 (None, 57, 57, 64) 0

_________________________________________________________________

conv2d_45 (Conv2D) (None, 55, 55, 64) 36928

_________________________________________________________________

conv2d_46 (Conv2D) (None, 53, 53, 64) 36928

_________________________________________________________________

batch_normalization_23 (Batc (None, 53, 53, 64) 256

_________________________________________________________________

conv2d_47 (Conv2D) (None, 51, 51, 128) 73856

_________________________________________________________________

conv2d_48 (Conv2D) (None, 50, 50, 128) 65664

_________________________________________________________________

batch_normalization_24 (Batc (None, 50, 50, 128) 512

_________________________________________________________________

flatten_3 (Flatten) (None, 320000) 0

_________________________________________________________________

dense_7 (Dense) (None, 32) 10240032

_________________________________________________________________

dropout_5 (Dropout) (None, 32) 0

_________________________________________________________________

dense_8 (Dense) (None, 32) 1056

_________________________________________________________________

dropout_6 (Dropout) (None, 32) 0

_________________________________________________________________

dense_9 (Dense) (None, 5) 165

=================================================================

Total params: 10,853,045

Trainable params: 10,851,925

Non-trainable params: 1,120

_________________________________________________________________

Its time to train the model on a GPU

This is how the training will progress and you can see we achieved 80% training as well as validation accuracy.

Epoch 1/5

370/370 [==============================] - 1849s 5s/step - loss: 29.1990 - acc: 0.7959 - val_loss: 10.7663 - val_acc: 0.8000
…
